model.pth (torch, 193332 bytes, 6 tensors)

model.0.weight f4 [256, 54]
0	0x3b607ac0	0.0034252852
1	0xbce32a38	-0.027730092
2	0x3cdb5850	0.02677551
3	0x3c58dd10	0.013236299
4	0x3e075420	0.13215685
5	0x3de11746	0.10990767
6	0xbcd89598	-0.02643852
7	0xbdf1ae6c	-0.118008465
8	0x3ccff920	0.025387347
9	0x3e05db47	0.13071929
10	0x3d594ed1	0.05305368
11	0xbd4f7d59	-0.05065665
12	0x3e05e99f	0.130774
13	0x3d7e4635	0.062078673
14	0xbe011baa	-0.12608209
15	0x3dfa50e2	0.122224584
16	0x3e03c8b5	0.12869532
17	0x3c867541	0.016413333
18	0xbd22421d	-0.03961383
19	0xbdff785c	-0.124741286
20	0x39ee0bcc	0.00045403687
21	0x3d201c09	0.039089236
22	0x3d83e0fe	0.06439398
23	0xbd8901d8	-0.06689805
24	0xbd6d16c9	-0.057883058
25	0x3dd8ad1e	0.105798945
26	0xbd1b77f5	-0.037956197
27	0x3d23db60	0.040004134
28	0x3dd57a8d	0.10423765
29	0x3c24661f	0.010034113
30	0xbc43e4c5	-0.011956398
31	0x3d95e509	0.073190756
32	0x3d68c89c	0.05683194
33	0xbdd9f047	-0.106415324
34	0x3df4f173	0.11960115
35	0x3e0276cf	0.12740634
36	0xbd7908de	-0.060799472
37	0x3d6dbbcc	0.058040425
38	0x3d20bd1a	0.03924284
39	0x3de3109c	0.11087152
40	0x3cb4cedc	0.022071294
41	0x3dec6152	0.11542
42	0x3db098ee	0.08622919
43	0x3e05df21	0.13073398
44	0x3d541f90	0.051787913
45	0xbd8c5149	-0.068514414
46	0xbc51d75f	-0.012807696
47	0xbda9193d	-0.08256767
48	0x3d8c9936	0.0686516
49	0xbd7ed47d	-0.062214363
50	0xbd141d27	-0.036160614
51	0x3dd7cdb5	0.105372824
52	0x3d9d1dfb	0.07671734
53	0xbc224c6f	-0.0099059185
54	0x3d385c98	0.04501018
55	0x3bc36800	0.0059633255
56	0xbcabaf5c	-0.020957641
57	0x3b8f7100	0.0043774843
58	0x3bdedee0	0.006801471
59	0xbceb6d98	-0.028738782
60	0xbdf1d6a2	-0.11808516
61	0x3d647040	0.055771112
62	0x3e03caa6	0.12870273
63	0x3b2cde00	0.002637744
64	0xbd2eaefe	-0.042647354
65	0x398b2800	0.00026541948
66	0xbd8ab565	-0.067728795
67	0x3d2221e8	0.039583117
68	0x3d378818	0.044807523
69	0xbdfaa05f	-0.122376196
70	0xbd4cb836	-0.049980365
71	0x3db60732	0.08888091
72	0x3e044692	0.12917545
73	0x3d60ce14	0.05488403
74	0x3e000532	0.12501982
75	0x3d633a20	0.055475354
76	0xbd4b3e66	-0.049620055
77	0xbdc2dd82	-0.095149055
78	0xbdf589d2	-0.11989178
79	0x3d9742d6	0.07385795
80	0x3d86d49c	0.06583521
81	0xbd0928ee	-0.0334863
82	0xbcaf8808	-0.02142717
83	0xbe07f34f	-0.13276409
84	0x3d501a4c	0.05080633
85	0xbdb9c9e6	-0.09071712
86	0xbdc3675f	-0.09541201
87	0xbd68c026	-0.056823872
88	0xbdd4ab86	-0.10384278
89	0x3d97f02e	0.074188575
90	0xbdefbfec	-0.11706528
91	0xbde50c41	-0.11183978
92	0x3e09c7c0	0.13455105
93	0xbdcb454e	-0.09925328
94	0xbd1746ca	-0.036932744
95	0x3cfb5550	0.030680329
96	0xbd29b4b6	-0.041432105
97	0xbd6f3e92	-0.05840928
98	0xbe0788a9	-0.13235725
99	0x3d993072	0.07479943
100	0x3da8cdac	0.08242354
101	0x3c754870	0.014970884
102	0x3dae65cc	0.0851551
103	0xbd3f5f36	-0.04672166
104	0x3ddac252	0.10681595
105	0xbe059661	-0.13045646
106	0x3dd3b864	0.10337904
107	0xbdf4c7dc	-0.11952183
108	0x3e0b15f0	0.13582587
109	0xbbe7c940	-0.0070735514
110	0x3dffd384	0.12491515
111	0x3bce8280	0.006302178
112	0xbd3a10d0	-0.04542619
113	0x3d82f658	0.063946426
114	0xbd9b94f6	-0.075967714
115	0x3d7246cc	0.05914955
116	0x3d673644	0.056448236
117	0x3d314605	0.043279666
118	0xbd8177bc	-0.06321666
119	0xbc48323b	-0.012219007
120	0x3d8c96ef	0.06864726
121	0x3d778c58	0.060436577
122	0x3da7b525	0.081888475
123	0xbdc587cd	-0.096450426
124	0xbdf05886	-0.117356345
125	0x3cec0c83	0.02881456
126	0x3d8a162d	0.06742511
127	0x3dec9e63	0.11553647
128	0xbd94cf06	-0.07266049
129	0x3d4b7944	0.049676195
130	0x3dfd0212	0.123539105
131	0x3da4fa91	0.08055604
132	0xbd6e7e42	-0.058225878
133	0xbe097495	-0.13423379
134	0x3d1c9e3c	0.03823684
135	0xbd107dfe	-0.035276406
136	0x3dc69a0f	0.09697353
137	0x3db94905	0.090471305
138	0xbd634f33	-0.055495452
139	0xbd9dd04f	-0.07705747
140	0x3dc8696b	0.09785732
141	0xbcd1226c	-0.025529109
142	0xbc928e12	-0.01789001
143	0x3c98bee4	0.018645711
144	0x3da24f6a	0.07925303
145	0x3c55b3ae	0.013043327
146	0x3e000972	0.12503603
147	0xbdf77bda	-0.1208417
148	0xbdc074e1	-0.09397293
149	0xbd96ad09	-0.073572226
150	0xbd983470	-0.07431877
151	0x3d9ac786	0.07557587
152	0xbd6aa3a5	-0.05728497
153	0x3d8bdf91	0.06829751
154	0xbd9cf489	-0.07663829
155	0x3dfacc8f	0.12246048
156	0xbd3c373b	-0.04595111
157	0xbd765315	-0.060137827
158	0x3d0fc38f	0.03509861
159	0x3de55875	0.111985125
160	0xbdc639e5	-0.09679011
161	0xbde64129	-0.11242897
162	0xbdd7dda8	-0.105403244
163	0xbbbdc860	-0.005791709
164	0xbd6481e2	-0.05578793
165	0xbe061bd1	-0.13096549
166	0x3c7370e0	0.0148584545
167	0xbd89e74c	-0.067335695
168	0xbddf7914	-0.10911766
169	0x3d8731a6	0.066012666
170	0x3d8e83e6	0.069587514
171	0x3df56e2c	0.11983904
172	0x3caf05a0	0.021364987
173	0x3d898dde	0.06716512
174	0xbc432c68	-0.011912443
175	0xbdf143ba	-0.11780496
176	0x3dbbf4bc	0.09177539
177	0xbe091647	-0.13387404
178	0x3d9a50da	0.075349525
179	0xbc696de0	-0.014247388
180	0x3da911dc	0.082553595
181	0xbd0872cc	-0.033312604
182	0x3da5a06a	0.08087237
183	0x3ccf5e78	0.0253136
184	0xbd6c3882	-0.057671078
185	0x3da8841e	0.08228324
186	0x3d400bec	0.04688637
187	0xbd781478	-0.060566396
188	0xbd5960da	-0.05307088
189	0xbda90655	-0.08253161
190	0x3cab6838	0.020923719
191	0xbd9bbec4	-0.07604745
192	0xbd946f84	-0.072478324
193	0x3cf44978	0.029820189
194	0xbdfbd6b8	-0.12296814
195	0x3d49f50c	0.04930596
196	0x3a9da380	0.0012026876
197	0x3d8e8972	0.06959809
198	0xbd2f6f3e	-0.0428307
199	0xbd87ea57	-0.06636494
200	0x3ddbbe0c	0.10729608
201	0xbd25f786	-0.04051926
202	0x3d9920c4	0.07476953
203	0xbd993ef0	-0.074827075
204	0x3c3f85c0	0.011689603
205	0x3df7d180	0.12100506
206	0xbdcf8894	-0.10133472
207	0xbdb2ba65	-0.08726958
208	0x3bdd7b40	0.0067590773
209	0xbd0ee928	-0.034890324
210	0xbcbe958c	-0.023264669
211	0x3db13b2c	0.08653864
212	0x3cdd95e0	0.027049005
213	0xbca35914	-0.019939937
214	0xbdcd4a27	-0.10023909
215	0xba995180	-0.0011697263
216	0xbd1a3c0a	-0.037654914
217	0xbdd0be1f	-0.10192513
218	0xbde71d65	-0.112849034
219	0xbad54f80	-0.0016274303
220	0xbcc06480	-0.023485422
221	0x3ddc5f2c	0.1076034
222	0xbcc9e910	-0.024647266
223	0x3bb04140	0.005378872
224	0xbdaf4082	-0.08557226
225	0xbd663368	-0.05620137
226	0xbd8810d1	-0.066438325
227	0xbd191468	-0.037372977
228	0x3d6cf570	0.057851255
229	0xbcbf5566	-0.02335615
230	0xbc8c3616	-0.017115634
231	0xbd21411e	-0.03936874
232	0x3de7feb3	0.11327877
233	0xbd46e7f6	-0.04856106
234	0xbdd41abf	-0.10356664
235	0xbdbaa5cd	-0.09113655
236	0xbd52adfc	-0.051435456
237	0x3c576ba8	0.013148226
238	0xbdd081ff	-0.10181045
239	0x3ba0db46	0.004908952
240	0xbd64b65e	-0.05583798
241	0x3d7bc437	0.061466422
242	0xbdbd5ddf	-0.0924642
243	0x3d3d3153	0.046189617
244	0x3d73270e	0.059363417
245	0xbd7d7ebf	-0.061888453
246	0x3da8ea82	0.08247854
247	0x3dd28a12	0.10280241
248	0x3d760454	0.06006272
249	0x3ddeffbc	0.10888621
250	0xbd3b3adb	-0.045710426
251	0xbdaa2c96	-0.08309285
252	0x3d8d4ec6	0.068997905
253	0xbd688efa	-0.056776978
254	0xbd9ee469	-0.077584095
255	0xbceaa03d	-0.02864086

model.0.bias f4 [256]
0	0x3d3cfeed	0.046141554
1	0xbdbd050d	-0.09229479
2	0xbcc2c250	-0.023774296
3	0x3dcd636c	0.10028729
4	0x3d8de447	0.06928306
5	0xbcd27a64	-0.025693126
6	0xbe06c04f	-0.13159297
7	0x3d38b42c	0.0450937
8	0xbd37ac90	-0.044842303
9	0x3be3fae6	0.0069573997
10	0x3ddcbe41	0.107784756
11	0xbdf32403	-0.11872103
12	0x3d4d2c98	0.050091356
13	0x3d93263e	0.071850285
14	0xbdd3b08e	-0.103364095
15	0x3d3234f0	0.043507516
16	0x3c6a11c9	0.014286467
17	0x3cf30c60	0.029668987
18	0x3dead804	0.11466983
19	0xbdecc241	-0.115604885
20	0x3de87e8c	0.11352262
21	0xbdd616ad	-0.10453544
22	0x3d815a87	0.06316095
23	0x3d2820cb	0.0410469
24	0x3d01e324	0.03171076
25	0x3dd6069e	0.10450481
26	0x3df6ebd0	0.120566964
27	0xbddf442d	-0.109016754
28	0xbd8c2565	-0.0684307
29	0x3da512b0	0.08060205
30	0x3c13803a	0.00900274
31	0xbdd3e543	-0.103464626
32	0x3dcc9da2	0.099910036
33	0xbd9d3472	-0.07676019
34	0x3dcb122a	0.09915574
35	0xbdff5be2	-0.12468697
36	0xbe03590b	-0.12826936
37	0x3db413da	0.08792849
38	0x3dcf8c90	0.10134232
39	0x3d0d6c9e	0.034527414
40	0xbde53546	-0.11191802
41	0x3bfef4e8	0.00778066
42	0x3da30dcf	0.07961618
43	0xbca85f63	-0.020553296
44	0xbdf18f57	-0.11794918
45	0xbdcab983	-0.09898665
46	0xbdc65b66	-0.096854016
47	0xbb633196	-0.0034667007
48	0xbd8a4273	-0.067509554
49	0xbbed7f4d	-0.0072478415
50	0x3d9cae26	0.07650404
51	0x3d42e0ea	0.047577776
52	0xbdaa3f4c	-0.08312854
53	0x3de5338e	0.11191474
54	0x3de7899e	0.11305545
55	0x3de6ffcc	0.11279258
56	0x3d27340d	0.040821124
57	0xbdb76c72	-0.08956231
58	0x3c5ce940	0.0134833455
59	0xbcf0f5fc	-0.02941417
60	0xbd7db4be	-0.061939947
61	0xbd9356fd	-0.07194326
62	0xbd3e7064	-0.046493903
63	0x3d5fe849	0.054664884
64	0xbbaf681f	-0.0053529884
65	0x3ceea570	0.029131621
66	0xbd46e131	-0.048554603
67	0xbcceb2b4	-0.025231697
68	0x3d0a672c	0.0337898
69	0xbabb9372	-0.001431091
70	0xbe175104	-0.14776999
71	0xbd240808	-0.04004672
72	0x3dbf4648	0.09339577
73	0x3e00cbd4	0.12577754
74	0xbe11a8c7	-0.1422454
75	0xbd1f2998	-0.038858026
76	0xbdb1f367	-0.086890034
77	0xbd92778f	-0.0715171
78	0xbd86760d	-0.06565485
79	0x3d3a7b98	0.045528024
80	0xbd807c7c	-0.062737435
81	0xbc9c64ae	-0.019090977
82	0x3dc2fac3	0.09520485
83	0xbdc5d4a0	-0.096596956
84	0x3dfcf76c	0.123518795
85	0x3d74a4f4	0.059727624
86	0x3c89b830	0.01681146
87	0xbdc2a05a	-0.09503241
88	0xbd5e512e	-0.054276638
89	0x3d59fdab	0.053220432
90	0xbb9d2444	-0.004795583
91	0xbe0a2254	-0.13489658
92	0xbdc9c773	-0.09852495
93	0xbd2e27a2	-0.042518266
94	0xbc5f52ec	-0.01363061
95	0xbce67dcc	-0.028136156
96	0x3de8f74e	0.113752946
97	0xbe059c55	-0.13047917
98	0xbdad3db9	-0.08459038
99	0xbdec7f07	-0.11547666
100	0x3e034b1c	0.1282162
101	0xbc8c8499	-0.017153071
102	0xbc452120	-0.012031823
103	0xbbede1aa	-0.0072595673
104	0x3d5b3dcd	0.053525735
105	0xbe010174	-0.1259821
106	0x3dc890a8	0.09793216
107	0xbce3cd5c	-0.027807884
108	0x3b949440	0.0045342743
109	0x3d6257ac	0.05525939
110	0xbd0c88b2	-0.03431005
111	0x3da64fdc	0.08120701
112	0xbdb68f48	-0.089140475
113	0xbcaefa02	-0.021359447
114	0xbd9e9466	-0.077431485
115	0x3d9f7ac2	0.07787086
116	0x3cb57750	0.02215162
117	0x3db912a8	0.090367615
118	0xbe08c1d3	-0.13355188
119	0x3d604b64	0.054759398
120	0xbc961ad8	-0.018323347
121	0xbda20b22	-0.0791228
122	0xbd840291	-0.06445802
123	0x3d93554e	0.07194005
124	0x3daf0df8	0.08547586
125	0x3ddb1dd4	0.10699049
126	0xb9b84200	-0.0003514439
127	0x3de2c8cb	0.110734545
128	0xbd72c5b8	-0.05927059
129	0xbd4316da	-0.047629215
130	0x3cb98460	0.02264613
131	0x3da31c34	0.07964364
132	0xbdf3e128	-0.119081795
133	0xbdb61cc2	-0.08892204
134	0x3c2ce322	0.0105522
135	0xbd9c1cca	-0.076226786
136	0xbdcf812a	-0.10132058
137	0x3d84afb8	0.06478828
138	0x3dc466b2	0.095899
139	0x3d65a1a8	0.05606237
140	0xbdd1ac8a	-0.10237987
141	0x3d65a319	0.056063745
142	0xbdef0260	-0.11670375
143	0x3d9a34e4	0.07529619
144	0x3dcb9382	0.09940244
145	0xbba140a0	-0.004921034
146	0xbda6f200	-0.081516266
147	0x3cbab290	0.022790223
148	0x3d57b590	0.052663386
149	0xbd924656	-0.07142322
150	0x3e0622b6	0.13099179
151	0xbd33d3e7	-0.043903258
152	0x3d855f80	0.06512356
153	0xbe006738	-0.12539375
154	0x3dbd6df2	0.09249486
155	0x3c5722b0	0.013130829
156	0x3ce68838	0.028141126
157	0xbdad2938	-0.084551275
158	0xbd94ee8a	-0.0727206
159	0x3ddb115a	0.10696669
160	0x3df84e8f	0.12124359
161	0xbc75345e	-0.014966099
162	0xbdfdc6ab	-0.123914085
163	0x3d9eea86	0.077595755
164	0x3cd8db67	0.026471807
165	0x3d7e69ca	0.062112607
166	0x3c21b5d9	0.009870016
167	0x3d96895e	0.073504195
168	0xbe17a4b3	-0.14808922
169	0xbd058cec	-0.032605097
170	0xbcbbc454	-0.022920765
171	0x3d799bd4	0.060939625
172	0xbd626cae	-0.055279426
173	0x3e06a8cb	0.13150327
174	0xbdf34384	-0.11878112
175	0x3e0980b5	0.13428004
176	0x3d8448ac	0.064591736
177	0xbde724be	-0.11286305
178	0xbdf0229e	-0.11725353
179	0xbd90ebf5	-0.07076255
180	0x3d878ad6	0.06618278
181	0x3d05c010	0.03265387
182	0x3ca71d69	0.020399766
183	0x3dc4805c	0.09594795
184	0xbd72688b	-0.05918173
185	0xbd0fc85c	-0.035103187
186	0x3da194ac	0.07889685
187	0x3e0b33a8	0.13593924
188	0x3de69456	0.112587616
189	0x3db5b850	0.088730454
190	0xbd5e4442	-0.054264314
191	0xbd77c2f4	-0.060488656
192	0x3d3461ec	0.044038698
193	0xbde1af4b	-0.110197626
194	0xbd455a26	-0.048181675
195	0x3d73ac03	0.059490215
196	0xbd513f66	-0.051085852
197	0xbe03661a	-0.12831917
198	0x3dd12e06	0.102138564
199	0x3c6d0510	0.014466539
200	0x3df09a9e	0.11748241
201	0x3ccc186a	0.024913985
202	0x3dcbfa56	0.09959857
203	0xbe0346c7	-0.12819968
204	0xbc14f1c3	-0.009090844
205	0x3d4eb614	0.050466612
206	0x3dfc58f4	0.12321654
207	0x3d1421c2	0.036165006
208	0xbd4f4220	-0.05060017
209	0xbdd908a8	-0.10597354
210	0xbd77254e	-0.06033831
211	0xbdaad15e	-0.08340715
212	0xbdd539a8	-0.10411388
213	0x3dc6b517	0.09702509
214	0x3d41a300	0.04727459
215	0xbd95fd81	-0.07323743
216	0xbde97079	-0.113984056
217	0x3dda56a1	0.106610544
218	0x3deb4efa	0.11489673
219	0x3e0b94ec	0.13631028
220	0x3d27ae75	0.04093786
221	0x3d3c45d0	0.045965016
222	0xbd5a6e8a	-0.053328075
223	0xbc864d2c	-0.01639422
224	0xbd955bd3	-0.07292905
225	0x3cdbcec0	0.026831985
226	0xbd9506ab	-0.072766624
227	0xbdd371fa	-0.10324474
228	0x3e04ec9d	0.12980886
229	0xbddd9621	-0.108196504
230	0xbc491240	-0.012272418
231	0xbe0384fe	-0.12843701
232	0xbce2ff9b	-0.027709773
233	0xbd7702c6	-0.06030538
234	0x3dcfc95d	0.10145829
235	0xbe04305b	-0.12909071
236	0x3d3179a7	0.043328907
237	0x3d8507dd	0.064956404
238	0xbda8554e	-0.082193956
239	0x3e03743c	0.12837309
240	0xbd04fa88	-0.032465488
241	0xbd027dea	-0.031858362
242	0x3d95e41e	0.073189005
243	0x3dd3f6a2	0.10349776
244	0xbdd027e0	-0.101638556
245	0xbe0d4628	-0.13796294
246	0x3d8f67d2	0.07002224
247	0xbd8d9f58	-0.06915158
248	0x3dcc65e4	0.099803716
249	0xbe0ee1c5	-0.13953312
250	0x3d054f78	0.03254649
251	0xbcdb4816	-0.026767772
252	0xbd678ba2	-0.05652965
253	0x3dde1b6b	0.10845073
254	0x3dcf117a	0.10110755
255	0x3d93f492	0.072243825

model.2.weight f4 [128, 256]
0	0xbcc32a52	-0.02382389
1	0xbd332d0c	-0.043744132
2	0x3ae73c55	0.0017641882
3	0xbd4d9748	-0.0501931
4	0xbd23228b	-0.039827865
5	0x3d21cc36	0.03950139
6	0x39596b67	0.00020734743
7	0xbcfb2d38	-0.03066121
8	0xbcf97ee0	-0.030456007
9	0x3c8c8960	0.01715535
10	0x3d258bc7	0.040416505
11	0x3cf22df5	0.02956293
12	0xbcd558a0	-0.026043236
13	0x3d383e9c	0.044981584
14	0x3cf1b75c	0.029506378
15	0xbc487d06	-0.012236839
16	0xbca5d7a5	-0.020244429
17	0x3cd2daf4	0.02573917
18	0xbbb77590	-0.0055987313
19	0xbd34a970	-0.0441069
20	0x3d566599	0.052342985
21	0x3d1fc668	0.039007574
22	0x3d879a59	0.06621236
23	0x3d3a0151	0.04541141
24	0xbc910401	-0.017702105
25	0x3cb615f0	0.022227257
26	0x3ca7d9c4	0.02048958
27	0x3cfa85e4	0.030581422
28	0xbd19217f	-0.03738546
29	0xbd1ec232	-0.038759418
30	0x3d5f3402	0.054492958
31	0x3d49b540	0.04924512
32	0x3bdf1e40	0.006809026
33	0x3c2c1b90	0.010504618
34	0x3d19d7f6	0.037559472
35	0x3b1ace40	0.002362147
36	0x3be082b0	0.0068515167
37	0x3c693bf8	0.014235489
38	0xbd771658	-0.060324043
39	0xbb935c37	-0.004497077
40	0x3c6aeb18	0.014338277
41	0x3b9bc679	0.0047538844
42	0x3bb850a8	0.0056248493
43	0xbd4a0f04	-0.049330726
44	0xbba207a6	-0.0049447594
45	0xbd499b5c	-0.049220428
46	0xbd7985dc	-0.060918674
47	0x3d16dc6e	0.036831312
48	0xbd5685ee	-0.05237382
49	0xbd24b7e2	-0.040214427
50	0x3ce07d66	0.027403545
51	0x3c3915c1	0.01129669
52	0xbd1b15a2	-0.037862428
53	0xbd4da8ea	-0.050209917
54	0x3d147930	0.036248386
55	0x3bbb1060	0.005708739
56	0x3d291b91	0.041286055
57	0x3cf5ff34	0.030028917
58	0xbbc27570	-0.00593441
59	0xbd0650d0	-0.032791913
60	0xbd039e38	-0.03213331
61	0x3c72b849	0.014814445
62	0x3d34f20b	0.044176143
63	0xbcc8c0a6	-0.024505924
64	0xbd4abadc	-0.04949461
65	0xbd0d3b9a	-0.03448067
66	0xbcb49bb2	-0.022046898
67	0x3bae44f0	0.0053182766
68	0x3d6fcfa0	0.058547616
69	0x3c15a988	0.009134658
70	0xbd46262e	-0.048376255
71	0x3cc82818	0.02443318
72	0xbd094b82	-0.033519275
73	0xbd267e2c	-0.04064767
74	0xbd206b56	-0.039164864
75	0xbb801690	-0.0039089397
76	0x3d5f1bda	0.05446992
77	0xbd55e970	-0.052224576
78	0xbc514245	-0.012772148
79	0xbd1057c8	-0.035239965
80	0xbd14f54e	-0.036366753
81	0xbc920c68	-0.017828181
82	0xbd393c58	-0.045223564
83	0x3c2e3bf6	0.010634413
84	0x3d78f74e	0.060782723
85	0x3d1dcc10	0.038524687
86	0xbb9611c0	-0.0045797527
87	0xbd2c0880	-0.042000294
88	0xbced6110	-0.028976947
89	0x3d523615	0.051321108
90	0xbb6c5c26	-0.0036065667
91	0xbc8782f0	-0.016541928
92	0xbd2b6d26	-0.04185214
93	0x3c24370d	0.010022891
94	0x3d5f38f9	0.054497693
95	0x3d28044e	0.04101973
96	0xbcbc5654	-0.022990383
97	0x3ce0887c	0.02740883
98	0xbc6cafd0	-0.014446214
99	0x3d6190f2	0.05506987
100	0x3d6bc005	0.05755617
101	0xbc956b23	-0.018239563
102	0xbd3e2652	-0.046423264
103	0x3d10e1b3	0.035371494
104	0xbbca82e2	-0.006180153
105	0xbb594b26	-0.0033156364
106	0x3d7600ee	0.06005948
107	0x3d793cd6	0.060849033
108	0x3d2ab056	0.041672073
109	0x3ce50418	0.027956054
110	0x3c54da68	0.012991525
111	0x3cf5e507	0.030016435
112	0xbd2d717e	-0.042344563
113	0x3d5fed02	0.054669388
114	0xbd47fe3a	-0.048826434
115	0xbc8488cd	-0.016178513
116	0x3d09199a	0.03347168
117	0xbaf692c0	-0.0018812045
118	0xbb33ee20	-0.0027455166
119	0xbcbff6e0	-0.023433149
120	0x3d3dcd22	0.046338208
121	0x3d7066a6	0.058691643
122	0x3ccf7ec4	0.025329001
123	0xbd0f3dc4	-0.034971014
124	0xbb87afc0	-0.004140824
125	0x3ccaa980	0.024739027
126	0xbd208ac8	-0.039194852
127	0x3b7df5b3	0.0038751184
128	0x3d46bee0	0.048521876
129	0xbd2d410a	-0.042298354
130	0xbd7831bc	-0.060594305
131	0xbd631fa6	-0.055450104
132	0xbd71e22e	-0.059053592
133	0xbc8eb5a4	-0.017420597
134	0x3d5fe54a	0.054662026
135	0x3d4662d2	0.048434086
136	0x3c515c02	0.012778284
137	0x3c81da99	0.015851306
138	0xbccb029c	-0.024781518
139	0xbd10a1f2	-0.035310693
140	0xbd3d12a8	-0.04616037
141	0xbcbd24ef	-0.0230889
142	0xbc70f558	-0.014706932
143	0x3d602843	0.054725897
144	0xbd410f13	-0.047133517
145	0xbca50fe4	-0.020149179
146	0x3d069066	0.032852553
147	0x3d58b110	0.052903235
148	0x3cd31399	0.02576618
149	0x3d3d704c	0.046249673
150	0xbd0d9cde	-0.03457343
151	0xbc25f2be	-0.010128675
152	0x3c203367	0.00977788
153	0xba897500	-0.0010487139
154	0xb7ab9000	-2.0451844e-05
155	0xbb7696d8	-0.003762653
156	0xbc754838	-0.014970832
157	0x3c96dc60	0.01841563
158	0xbd382424	-0.04495634
159	0x3d40441d	0.046939958
160	0xbc82e317	-0.015977426
161	0x3c98e450	0.018663555
162	0x3d34004e	0.043945603
163	0xbd1a85a6	-0.037725113
164	0xbd0902cb	-0.03344993
165	0xbc87e778	-0.016589865
166	0xbd517fd0	-0.051147282
167	0x3c6db818	0.014509223
168	0x3aa9db08	0.0012958953
169	0x3d66d0d6	0.056351505
170	0xbca6d475	-0.02036498
171	0x3ca29ccc	0.019850157
172	0xbd0ca200	-0.034334183
173	0xbc372f83	-0.011180761
174	0xbd0d5048	-0.03450039
175	0xbc907f48	-0.017638817
176	0xbd7546c4	-0.05988194
177	0xbd4d3b0b	-0.050105136
178	0x3cd5c858	0.026096508
179	0x3d7200c4	0.05908276
180	0x3d537ca7	0.05163255
181	0x3b5c3cc0	0.0033605546
182	0xbbc132d6	-0.0058959527
183	0x3ce97040	0.028495908
184	0x3b9c3b44	0.004767807
185	0x3cd51802	0.026012424
186	0x3d0ec704	0.034857765
187	0xbca9909c	-0.020698838
188	0xbd47234e	-0.048617654
189	0xbd61253c	-0.05496715
190	0x3ce8e010	0.028427154
191	0x39841100	0.00025189668
192	0x3d3e2066	0.046417616
193	0xbd5cb152	-0.053880043
194	0x3d5bd2ab	0.053667706
195	0x3d308db3	0.043103885
196	0x3ce24f08	0.027625576
197	0x3c9847e4	0.018588968
198	0xbd0a3db6	-0.03375026
199	0x3d7135be	0.058889143
200	0x3d136986	0.035989307
201	0x3d81b534	0.0633339
202	0x3c8534dd	0.016260559
203	0x3c680296	0.014160773
204	0xb99d3afa	-0.00029989314
205	0xbd4320be	-0.047638647
206	0xbd2c35a7	-0.042043354
207	0xbd096909	-0.033547435
208	0x3d3429ee	0.0439853
209	0x3d5695b2	0.052388854
210	0x3c909f30	0.017654032
211	0xbcf60724	-0.030032702
212	0x3cee0d68	0.029059127
213	0x3d3b2719	0.045691583
214	0x3aff1fc0	0.0019464418
215	0x3cd37080	0.02581048
216	0x3d27c6e8	0.040961176
217	0x3d811a7a	0.06303878
218	0x3d4334e8	0.047657877
219	0x3d826cb3	0.06368389
220	0x3c9c0a3a	0.019047845
221	0x3d73a468	0.059482962
222	0x3c652868	0.013986684
223	0xbc4f1c08	-0.0126409605
224	0xbd319600	-0.04335594
225	0xbba23430	-0.004950069
226	0xbd16157c	-0.036641583
227	0x3c3b1f76	0.011421075
228	0x3cdacc3a	0.026708711
229	0xbd81d4ad	-0.06339393
230	0xbd1548bc	-0.036446318
231	0xbd3e4a16	-0.046457373
232	0x3d3eb4d5	0.046559174
233	0xbd1231e6	-0.035692118
234	0x3d1b5990	0.03792721
235	0xbcceb3de	-0.025232252
236	0xbc0e63a8	-0.008690752
237	0xbd69b82d	-0.05706041
238	0x3c7b7c28	0.015349425
239	0xbd0f0dca	-0.03492526
240	0x3d4308ae	0.0476157
241	0x3d062a6e	0.032755308
242	0x3d45461d	0.04816257
243	0xbd21f104	-0.03953649
244	0xbd3c821a	-0.046022512
245	0x3c2f6957	0.010706267
246	0xbce03ce4	-0.027372785
247	0xbca31200	-0.019906044
248	0x3c9f368c	0.01943519
249	0x3c8efc3a	0.017454255
250	0x3cc7a672	0.02437136
251	0xbd30b9be	-0.043145888
252	0x3c8fccfc	0.017553799
253	0xbce89978	-0.028393492
254	0x3cb4d568	0.022074416
255	0xbceb9c54	-0.028761066

model.2.bias f4 [128]
0	0x3d350ea2	0.044203408
1	0xbd0b10c3	-0.033951532
2	0xbd5e29f5	-0.054239232
3	0xbd9fe833	-0.0780796
4	0xbcb990ac	-0.022651993
5	0x3dcc0bcb	0.09963187
6	0x3d13bd9a	0.03606949
7	0xbd035362	-0.032061942
8	0x3d23d37c	0.03999661
9	0xbc6d072e	-0.014467044
10	0x3ca35540	0.019938111
11	0xbd6bab64	-0.057536498
12	0xbcfeb890	-0.031093866
13	0xbc6fb7a8	-0.014631189
14	0xba08145a	-0.0005191021
15	0x3d76767a	0.06017158
16	0xbca6e309	-0.02037193
17	0xbd359805	-0.04433443
18	0xbcd34f3f	-0.025794623
19	0x3b69f69a	0.0035699965
20	0x3d37c868	0.044868857
21	0x3d40114d	0.0468915
22	0x3b89f607	0.004210237
23	0xbd761582	-0.060079105
24	0xbd822935	-0.06355516
25	0xbcbddfbb	-0.023177972
26	0xbd882bbd	-0.066489674
27	0xbd9d3763	-0.0767658
28	0xbbd3bb8e	-0.0064615672
29	0x3ce95c7f	0.028486488
30	0x3cb110a8	0.021614388
31	0x3cf21808	0.029552475
32	0x3d5a0a99	0.053232763
33	0x3cb4e1c6	0.022080313
34	0xbcf4c548	-0.029879227
35	0x3ca1d258	0.01975362
36	0xbd847a0e	-0.064685926
37	0xbaf529e2	-0.0018704499
38	0xbc810d6a	-0.015753467
39	0xbd65d4de	-0.05611121
40	0x3c1d7da3	0.009612474
41	0xbdb9467f	-0.09046649
42	0xbdb8d2f2	-0.090246096
43	0x3c4f16c6	0.012639707
44	0x3d21de0c	0.0395184
45	0x3cbca80c	0.02302935
46	0x3d03ff07	0.032225635
47	0xbcbcf24e	-0.023064759
48	0x3d63bb58	0.055598587
49	0x3d2401ce	0.040040784
50	0x3bd370bd	0.0064526484
51	0xbd1b50cd	-0.037918855
52	0xbb420207	-0.002960326
53	0xbc5576c0	-0.0130288005
54	0x3c32c76a	0.010911802
55	0x3c85a494	0.016313829
56	0xbbd7e8c6	-0.006589028
57	0xbd17d7ba	-0.037070967
58	0x3c1ae079	0.0094529325
59	0x3d048642	0.0323546
60	0xbd187c4c	-0.037227914
61	0x3cea8111	0.028625997
62	0xbb8bf616	-0.004271279
63	0x3cafee20	0.021475852
64	0x3c05b318	0.008160375
65	0xbbae8b47	-0.0053266617
66	0xbceab673	-0.028651452
67	0xbd149c53	-0.036281895
68	0xbd1dc95a	-0.038522102
69	0xbc8f5a06	-0.017498981
70	0x3d3fdd23	0.04684175
71	0x3b4d4874	0.0031323703
72	0x3cb27b89	0.021787422
73	0xbb98b780	-0.004660547
74	0x3caff37e	0.02147841
75	0xbd6f4e00	-0.058423996
76	0xbd60187f	-0.05471086
77	0xbd48ca2b	-0.049020927
78	0x3d4e186e	0.050316267
79	0xbda33e1b	-0.0797083
80	0xbd246160	-0.040131927
81	0x3d292514	0.041295126
82	0x3cd43aef	0.025907008
83	0xbcdaf33c	-0.026727311
84	0x3bc34970	0.005959682
85	0xbd604424	-0.054752484
86	0xbd2e5998	-0.042565912
87	0x3c892639	0.016741859
88	0xbcdd6a9f	-0.02702838
89	0x3d685a0e	0.056726508
90	0xbd52bce4	-0.05144967
91	0x3d75131a	0.05983267
92	0x3d24726d	0.040148187
93	0xbbd55120	-0.006509915
94	0x3d3aac14	0.045574263
95	0xbd4eedc2	-0.050519712
96	0x3cce2c74	0.025167681
97	0xbbe95beb	-0.007121553
98	0xbd4e210e	-0.050324492
99	0x3da3f0fc	0.080049485
100	0xbd67f1be	-0.056627028
101	0x3c8d6804	0.017261513
102	0xbd25e94e	-0.0405057
103	0xbc0b94ae	-0.008519335
104	0x3c7c4990	0.015398398
105	0xbce057f8	-0.027385697
106	0x3cfa264b	0.030535838
107	0x3ba5dc70	0.0050616786
108	0x3c8a4577	0.016878827
109	0x3ce7c9e6	0.028294515
110	0xbba5df9d	-0.005062057
111	0xbc3ac023	-0.011398348
112	0xbd25de1b	-0.04049502
113	0xbd7f0842	-0.062263735
114	0x3d4db186	0.050218128
115	0xbd7dc2a6	-0.06195321
116	0x3c3d4925	0.011553084
117	0xbcf326cd	-0.029681588
118	0xbd867a3e	-0.065662846
119	0xbd62d095	-0.0553747
120	0x3be8cd67	0.007104564
121	0xbd3afd78	-0.045651883
122	0x3d4e4d6f	0.050366815
123	0x3c117866	0.008878803
124	0x3ccd37d5	0.025051037
125	0xbbde7d44	-0.006789835
126	0x3d0fdaca	0.035120763
127	0xbcef55e0	-0.029215753

model.4.weight f4 [6, 128]
0	0x3cea0257	0.028565569
1	0xbd8a89c5	-0.06764559
2	0xbc347bd0	-0.011015847
3	0xbce1895e	-0.027531322
4	0xbd4bdbf7	-0.04977032
5	0xbc270450	-0.010193899
6	0x3da6ea55	0.08150164
7	0x3d57e6db	0.052710395
8	0x3d26a45a	0.04068408
9	0x3cb0aae4	0.021565862
10	0xbcbeb466	-0.02327938
11	0xbd8d2f26	-0.068937585
12	0xbd7b5c2a	-0.06136719
13	0x3cfb4f74	0.030677535
14	0xbbba5d0c	-0.0056873616
15	0xbd5c7c55	-0.05382951
16	0xbc7beff6	-0.015377035
17	0x3d483742	0.048880823
18	0xbd24b374	-0.040210202
19	0x3c856bc4	0.016286738
20	0xbd8da4fc	-0.06916234
21	0x3d6e3176	0.05815264
22	0x3d1ea809	0.03873447
23	0xbcac6afc	-0.021047108
24	0xbbc20b80	-0.005921781
25	0xbd76ee87	-0.06028607
26	0x3cc9358a	0.024561662
27	0x3d36a626	0.044592045
28	0x3daa17d4	0.08305326
29	0xbcf107f8	-0.029422745
30	0x3d71e9e2	0.05906094
31	0xbcdfebc0	-0.027334094
32	0x3b4809d5	0.0030523438
33	0x3d5762c4	0.052584425
34	0xbdadcc82	-0.084862724
35	0x3c1adfe4	0.009452794
36	0x3d16e24c	0.036836907
37	0x3c9d511d	0.019203717
38	0x3d916243	0.0709882
39	0x3d76702e	0.060165577
40	0x3c937234	0.017998792
41	0x3d15f4ba	0.036610343
42	0x3cf3b748	0.029750481
43	0x3d7a0314	0.06103809
44	0xbd32ce45	-0.043653745
45	0x3d8fe0b5	0.07025281
46	0x3df5e609	0.12006766
47	0xbda2ea09	-0.07954795
48	0x3da3d603	0.07999804
49	0x3cb14a87	0.021641983
50	0xbd7e0b3d	-0.062022436
51	0xbcae085c	-0.02124422
52	0xbd6d006b	-0.057861727
53	0xbda16e0f	-0.0788232
54	0xbce8c384	-0.028413542
55	0x3db24b49	0.08705766
56	0x3d31ee06	0.043439887
57	0x3ccf9f68	0.025344566
58	0x3cf0a691	0.0293763
59	0xbd96aec6	-0.07357554
60	0xbdb1778a	-0.086653784
61	0xbc4390ff	-0.011936425
62	0xbcab65d7	-0.020922584
63	0x3caac624	0.020846434
64	0x3c250670	0.010072336
65	0x3d2adb56	0.04171308
66	0xbcf88b64	-0.030339904
67	0x3d3a6238	0.045503825
68	0x3c8f15b4	0.017466404
69	0xbc24d30c	-0.010060083
70	0xbd99b4b8	-0.075051725
71	0xbd650ac0	-0.055918455
72	0x3d32a2c2	0.04361225
73	0xbd0d8621	-0.034551743
74	0xbcaa05c4	-0.020754702
75	0x3d9617b4	0.0732874
76	0xbca904d1	-0.02063218
77	0xbc0fae9f	-0.00876966
78	0x3d7824de	0.060582034
79	0x3da241d9	0.07922716
80	0x3d93cd57	0.072169
81	0xbd905217	-0.070469074
82	0xbcc40d18	-0.023932025
83	0x3ce93fe0	0.02847284
84	0xbc9a10bc	-0.018806808
85	0x3b6d3100	0.0036192536
86	0xbd99c6a6	-0.07508592
87	0xbcbeaec4	-0.023276694
88	0x3d0016c3	0.031271707
89	0x3cc5be60	0.02413863
90	0x3d9a2dad	0.07528243
91	0xbccb799c	-0.024838261
92	0x3d6f8675	0.058477838
93	0x3d27c782	0.04096175
94	0xbda9caf7	-0.082906656
95	0x3d3be3d2	0.045871563
96	0x3dab03d3	0.08350339
97	0xbd63ca2f	-0.05561274
98	0xbd0f2b1d	-0.034953225
99	0x3d8b7db5	0.06811086
100	0xbd695941	-0.056969885
101	0x3cbef5a0	0.023310483
102	0x3dad6093	0.08465686
103	0x3cd6ae7c	0.026206248
104	0x3d40623e	0.04696869
105	0xbd81ae0a	-0.063320234
106	0x3da4b1ed	0.08041749
107	0xbd8f004e	-0.0698248
108	0xbd4ccde7	-0.05000105
109	0x3d1f38bc	0.038872465
110	0x3da7898a	0.0818053
111	0xbd23810a	-0.039917983
112	0x3cdccb44	0.026952393
113	0xbb87cc58	-0.0041442327
114	0x3d451c64	0.04812278
115	0xbd4b9a3b	-0.049707633
116	0x3cf11ef4	0.029433705
117	0x3c7af0e8	0.015316226
118	0x3c45bc2f	0.012068792
119	0xbcafaafe	-0.02144384
120	0xbd736b50	-0.059428513
121	0x3d5a01d6	0.053224407
122	0xbd493d59	-0.04913077
123	0x3da52959	0.08064527
124	0x3d1c607f	0.038177963
125	0xbccae29c	-0.024766259
126	0xbd71c58a	-0.05902628
127	0xbd1e06a7	-0.038580563
128	0x3d79bf6d	0.060973573
129	0xbb1fc200	-0.0024377108
130	0x3d6ee2ce	0.058321767
131	0xbc39cbd7	-0.011340103
132	0x3c961eac	0.018325172
133	0x3dcb581c	0.09928915
134	0x3d1009f0	0.035165727
135	0x3b8e4c91	0.0043426235
136	0x3d87b976	0.06627171
137	0x3bc659f5	0.006053204
138	0xbc8d41bf	-0.017243264
139	0xbc20df58	-0.009818874
140	0xbd54398e	-0.0518127
141	0x3da41b15	0.08012978
142	0x3d842c27	0.06453734
143	0x3d394162	0.04522837
144	0xbc31c8b8	-0.010851078
145	0x3b279920	0.0025573447
146	0xbc14de94	-0.00908627
147	0xbc66cccb	-0.014086912
148	0x3c7a94b8	0.015294246
149	0x3cc2ba14	0.02377037
150	0xbd992e23	-0.07479503
151	0x3dc16886	0.094437644
152	0xbd96fcdc	-0.07372448
153	0xbd97204c	-0.07379207
154	0x3d473db7	0.04864284
155	0x3ca00ecc	0.019538306
156	0xbc096046	-0.00838477
157	0x3d697027	0.056991722
158	0xbd885df0	-0.06658542
159	0xbcfc46fa	-0.030795563
160	0x3d925131	0.07144392
161	0xbd32c50b	-0.043644946
162	0x3d5fe036	0.054657184
163	0xbd85cf53	-0.065336846
164	0xbd81361a	-0.06309147
165	0x3d917283	0.071019195
166	0x3da3f96a	0.08006556
167	0xbd3f8619	-0.046758745
168	0xbce1a968	-0.0275466
169	0xbd501774	-0.050803617
170	0xbab541c0	-0.0013828799
171	0xbc8ec3f9	-0.017427431
172	0x3d154b6a	0.036448874
173	0x3d57203e	0.052520983
174	0xbd3d8ed1	-0.04627878
175	0x3db4491f	0.08803009
176	0x3d419da2	0.04726947
177	0xbce8530a	-0.028359909
178	0xbc43c850	-0.011949614
179	0x3d49b17a	0.04924152
180	0xbd976e06	-0.07394032
181	0x3d22e32e	0.039767437
182	0x3d1d12fe	0.03834819
183	0x3d3c0eae	0.045912437
184	0x3ba95d95	0.0051686266
185	0xbcb63f04	-0.022246845
186	0xbbeb317e	-0.007177531
187	0xbd364109	-0.044495616
188	0x3d746e1a	0.059675314
189	0x3d81b301	0.063329704
190	0x3dd9d5dc	0.106364936
191	0xbc862ed8	-0.016379759
192	0x3d05f2d0	0.032702267
193	0x3d62f2dc	0.05540739
194	0x3d8117c5	0.06303362
195	0x3d47f88a	0.04882101
196	0xbd50196f	-0.050805505
197	0x3d740946	0.059579156
198	0xbd6bef04	-0.05760099
199	0xbc6b6138	-0.0143664405
200	0xbd9193ae	-0.07108246
201	0xbd93ed08	-0.072229445
202	0x3d70784d	0.058708478
203	0xbcaba7f2	-0.020954106
204	0xbbbe12ad	-0.005800566
205	0xbd9205c7	-0.07130008
206	0xbcfc5a7b	-0.030804863
207	0x3d8a388b	0.06749066
208	0x3d1ae93e	0.037820093
209	0x3d2756da	0.040854312
210	0x3ce7269c	0.028216653
211	0x3c837bc8	0.016050234
212	0xbd5649cf	-0.052316483
213	0x3ce49224	0.027901717
214	0x3d4841e6	0.04889097
215	0x3d3faee3	0.046797644
216	0x3c7a19cf	0.015264942
217	0x3bb3a0c0	0.0054818094
218	0x3d30e446	0.04318645
219	0xbda07606	-0.07835011
220	0xbd340e6e	-0.043959074
221	0xbc87fdf0	-0.016600579
222	0x3da4b7b3	0.0804285
223	0xbd3b4d7c	-0.04572819
224	0x3db4952b	0.08817514
225	0xbd8915e1	-0.06693626
226	0x3d0fee96	0.035139643
227	0x3ce73a42	0.028226022
228	0x3caf0620	0.021365225
229	0x3d8cc6bd	0.06873844
230	0xbdacdeeb	-0.08440956
231	0xbcf99330	-0.030465692
232	0x3cb02e68	0.021506503
233	0x3d3a38c2	0.045464285
234	0xbdd9e614	-0.10639587
235	0xbd2de717	-0.042456713
236	0xbd5a642d	-0.05331819
237	0x3ca72e2f	0.020407764
238	0x3d024910	0.03180796
239	0xbd553d9a	-0.0520607
240	0x3b30decf	0.0026988273
241	0xbd2e0c4a	-0.04249219
242	0x3c5e8fc4	0.013584081
243	0x3bf276a0	0.007399395
244	0xbc587318	-0.013211034
245	0x3d871f59	0.06597776
246	0x3d1f1060	0.038833976
247	0x3dccbf59	0.09997434
248	0x3d60c1c2	0.05487228
249	0x3d07dbd0	0.033168614
250	0xbdaf4cea	-0.08559592
251	0x3ce63394	0.028100766
252	0x3cc5a13e	0.024124738
253	0x3d34d3a9	0.044147167
254	0xbd19d0b3	-0.037552547
255	0xbcff2c99	-0.031149196

model.4.bias f4 [6]
0	0x3c966797	0.018359942
1	0x3dc8384a	0.09776361
2	0xbbb7acff	-0.0056053395
3	0x3daae2e7	0.083440594
4	0x3d4bdb78	0.04976985
5	0x3da9defb	0.08294483
